pika.onnx (onnx, 95633 bytes, 6 tensors)

actor.0.bias f4 [128]
-0.06625639 0.045128435 0.108931534 -0.259735 0.14765763 0.07499899 0.48974672 -0.18231598
0.17495108 -0.014656454 -0.29218388 0.16808194 -0.13608137 -0.26080042 -0.31545106 -0.21452785
0.1266434 -0.5826649 -0.74351835 0.08975192 -0.029701801 -0.28188506 -0.1930163 0.126966
-0.5983259 -0.009602878 -0.14832537 -0.20687275 0.21235819 -0.18485184 -0.009240161 -0.12682432
-0.49692592 0.29484108 -0.07414587 0.1413189 0.5637185 0.56554556 -0.44710737 0.13798885
0.23319514 -0.08113225 0.014476134 0.36020017 -0.5216157 -0.20288973 0.624311 -0.07750284
-0.13483752 -0.6066183 -0.36292538 -0.35692483 -0.294698 0.20160273 -0.30137196 -0.011543039
-0.43615144 -0.4221976 -0.096386075 0.09670884 0.15731362 -0.15686934 -0.0059841108 0.18715224
0.32925457 -0.27814618 -0.18270059 -0.18170781 0.65989995 -0.031796753 0.28470424 -0.22367331
-0.097908564 -0.34616962 -0.050892953 0.0177832 -0.2877234 0.09580946 0.0573215 -0.04895814
0.16232967 -0.16163163 0.5048808 -0.32023525 0.22275627 -0.034240842 0.33036968 0.123265214
-0.08236636 -0.11409138 -0.1593132 -0.06334156 0.17351042 -0.26295367 -0.2373952 -0.121540874
0.24541783 0.12632822 -0.17802422 -0.007218175 0.15610708 -0.0013353906 -0.1508288 0.31759244
-0.06927375 0.5540633 -0.21244307 0.1771676 0.4450902 -0.32766327 -0.61154383 -0.7284732
-0.056238033 -0.19041674 -0.43052858 0.011937656 -0.29571488 0.056594554 0.13423686 -0.17760442
-0.051585983 0.32719463 -0.009570248 0.005718933 0.4003467 0.22048078 0.051233776 0.2751394
00000000: 6eb1 87bd 98d8 383d 7f17 df3d fcfb 84be
00000010: 9033 173e 1299 993d 15c0 fa3e 0ab1 3abe
00000020: 6026 333e a021 70bc 2099 95be ac1d 2c3e
00000030: ea58 0bbe a287 85be cd82 a1be 30ad 5bbe
00000040: cfae 013e 8729 15bf 3857 3ebf dbcf b73d
00000050: 3151 f3bc 3d53 90be 11a6 45be 6003 023e
00000060: e32b 19bf 6455 1dbc 9be2 17be 73d6 53be
00000070: 6d74 593e cd49 3dbe 0b64 17bc 3cde 01be
00000080: 136d febe 69f5 963e cad9 97bd e7b5 103e
00000090: db4f 103f 98c7 103f 42eb e4be f34c 0d3e
000000a0: b5ca 6e3e aa28 a6bd 4f2d 6d3c 286c b83e
000000b0: 9b88 05bf 53c2 4fbe d8d2 1f3f cfb9 9ebd
000000c0: d912 0abe 564b 1bbf 5bd1 b9be dabe b6be
000000d0: a8e2 96be f270 4e3e 6d4d 9abe 041f 3dbc
000000e0: 3e4f dfbe 492a d8be 1066 c5bd 490f c63d
000000f0: d216 213e 5ba2 20be 5c16 c4bb d6a4 3f3e
00000100: 0e94 a83e 2d69 8ebe dd15 3bbe 9d11 3abe
00000110: 34ef 283f 503d 02bd c1c4 913e 9e0a 65be
00000120: 4984 c8bd 253d b1be 2175 50bd 13ae 913c
00000130: 7b50 93be c037 c43d f3c9 6a3d 5588 48bd
00000140: c039 263e c382 25be de3f 013f e0f5 a3be
00000150: 381a 643e 2040 0cbd 3726 a93e 7972 fc3d
00000160: b2af a8bd bea8 e9bd 0023 23be 38b9 81bd
00000170: b7ac 313e dda1 86be ba17 73be 6cea f8bd
00000180: d04e 7b3e 2f5c 013e fb4b 36be 7186 ecbb
00000190: 89da 1f3e 4608 afba dd72 1abe 7a9b a23e
000001a0: 65df 8dbd 18d7 0d3f ad8a 59be 6c6b 353e
000001b0: dde2 e33e 7bc3 a7be 238e 1cbf 387d 3abf
000001c0: da59 66bd 9bfc 42be 3e6e dcbe 2996 433c
000001d0: f167 97be b1cf 673d 6375 093e efdd 35be
000001e0: d34b 53bd 0e86 a73e 88cc 1cbc e365 bb3b
000001f0: 3efa cc3e b7c5 613e 82da 513d 12df 8c3e

actor.2.bias f4 [128]
0.109938845 -0.32645807 -0.28945923 0.043632448 -0.23153588 -0.18468025 -0.014326154 0.123566
0.10658256 -0.27104974 0.17492831 0.044010878 0.058924045 -0.09151685 -0.03965431 0.14640294
-0.098888025 0.25650156 -0.00042355355 0.033668738 0.015690431 0.08611196 0.005785664 -0.08986562
0.16375561 0.29099366 0.08008827 -0.016403865 0.06758418 0.18468107 0.23791285 -0.35129595
-0.10531338 0.21568048 0.034948096 0.2069797 0.12343204 -0.22413068 -0.24592936 -0.01599715
-0.04972314 0.09616144 0.11055722 -0.0353592 -0.16999279 -0.1979164 0.20636651 -0.12871285
-0.19603944 -0.2888222 0.1670256 0.14600167 -0.3319525 -0.11199962 0.00012542581 0.022903156
0.039368104 -0.0063691894 0.015383721 0.293198 0.0071436274 -0.14622375 -0.26896858 -0.017817345
-0.25906384 -0.04647855 0.19101505 0.35015336 0.15994428 -0.695574 -0.06599116 0.10995492
0.25920373 -0.43302315 0.17492263 0.0013068265 0.013741578 0.03262194 0.26753858 0.12849465
0.011899098 0.21522364 -0.7988678 0.0021722503 0.2137866 -0.20794338 -0.24866828 -0.60788053
0.120174915 -0.24249722 0.08943424 0.111416705 0.11587406 0.13543585 0.018050121 -0.2735864
-0.16631238 0.28311843 0.29036427 -0.027019909 -0.02808767 -0.14802332 -0.19747025 0.004382007
-0.09603208 -0.10522005 0.30297074 -0.2551626 -0.25015956 -0.022152336 0.03551242 -0.16719073
0.13683468 -0.31331402 0.01897957 0.17057842 -0.12828971 -0.040178232 -0.06103229 -0.05833343
-0.21590899 -0.07665869 -0.23503175 -0.15427625 -0.11517959 0.2205303 0.12450905 -0.11548613
00000000: 9e27 e13d 8325 a7be 0034 94be f0b7 323d
00000010: be17 6dbe d21c 3dbe 3fb8 6abc 2c10 fd3d
00000020: f547 da3d 08c7 8abe 6820 333e c044 343d
00000030: 575a 713d 306d bbbd 8f6c 22bd a7ea 153e
00000040: ce85 cabd 2c54 833e 6510 deb9 3be8 093d
00000050: 3889 803c 785b b03d ab95 bd3b 770b b8bd
00000060: 8daf 273e 1ffd 943e 5205 a43d 6661 86bc
00000070: 9369 8a3d 091d 3d3e 6d9f 733e 10dd b3be
00000080: 8bae d7bd 58db 5c3e bc25 0f3d 7df2 533e
00000090: f0c9 fc3d 8382 65be e8d4 7bbe 750c 83bc
000000a0: 7eaa 4bbd 4af0 c43d d36b e23d cfd4 10bd
000000b0: 9712 2ebe 99aa 4abe be51 533e 4dcd 03be
000000c0: 90be 48be 81e0 93be c208 2b3e 7681 153e
000000d0: aef5 a9be 0f60 e5bd bc84 0339 669f bb3c
000000e0: 7340 213d a2b4 d0bb 010c 7c3c 0c1e 963e
000000f0: 1715 ea3b aebb 15be 40b6 89be aef5 91bc
00000100: 04a4 84be 4b60 3ebd 7399 433e 4d47 b33e
00000110: 6fc8 233e 2311 32bf 6026 87bd 0c30 e13d
00000120: 5ab6 843e 36b5 ddbe eb1e 333e d249 ab3a
00000130: 5b24 613c 959e 053d d1fa 883e 1a94 033e
00000140: 6ff4 423c 9663 5c3e 9a82 4cbf 505c 0e3b
00000150: e0ea 5a3e 1cef 54be e6a2 7ebe 0f9e 1bbf
00000160: 441e f63d 3151 78be 4c29 b73d 712e e43d
00000170: 614f ed3d b2af 0a3e d9dd 933c 8413 8cbe
00000180: cb4d 2abe e6f4 903e a0aa 943e db58 ddbc
00000190: 1d18 e6bc 6d93 17be a435 4abe f096 8f3b
000001a0: 78ac c4bd 9c7d d7bd fb1e 9b3e aca4 82be
000001b0: ea14 80be d178 b5bc 7975 113d 0c34 2bbe
000001c0: 641e 0c3e b26a a0be 0b7b 9b3c 1cac 2e3e
000001d0: 615e 03be ee91 24bd fffc 79bd 09ef 6ebd
000001e0: 3f17 5dbe 3bff 9cbd 2aac 70be 98fa 1dbe
000001f0: 47e3 ebbd b2d2 613e 9afe fe3d fe83 ecbd

actor.4.bias f4 [18]
0.17930827 0.1951177 0.21239188 0.18094815 0.29045266 0.14528762 0.20577058 0.2680366
0.11110992 0.29588106 0.20873849 0.17953533 0.2889014 0.1790611 0.29323742 0.31778
0.19678308 0.23714176
00000000: 969c 373e efcc 473e 427d 593e 794a 393e
00000010: 36b6 943e 47c6 143e 86b5 523e 183c 893e
00000020: 998d e33d b97d 973e 8bbf 553e 1cd8 373e
00000030: e2ea 933e cb5b 373e 3723 963e 0fb4 a23e
00000040: 8181 493e 4ad5 723e

onnx::MatMul_38 f4 [35, 128]
-0.2505992 -0.42661297 -0.4902723 -0.27062845 -1.177795 -0.8768441 1.0006824 0.41892496
0.23054162 0.7689303 0.056942374 -0.23099257 -0.17617585 -0.3619597 0.11977914 -1.0360222
0.11302964 0.11630234 0.24629812 -0.1701045 0.18711105 0.7556134 0.26902193 -0.11423252
0.8079101 0.44208944 -0.19119793 0.64341843 -0.5433463 -0.4029284 -0.0028737898 0.1735983
0.14649525 1.1833539 0.61821586 -0.06822838 0.3183999 0.04767773 -0.104838245 0.043975633
-1.535801 0.74239373 0.11459529 -0.43269813 0.919798 -0.14826761 -0.40463534 -0.42514828
-0.018763702 0.016064394 0.3318629 0.9433929 -0.1884832 -0.16317275 -0.094618164 0.24155517
0.19975919 -1.1070896 -0.8965883 0.5541401 -0.8121281 0.31782708 -1.1527932 -0.5404013
0.026196979 0.86235136 -0.30807582 0.05499296 -0.22214267 -0.06484252 -0.816548 -1.0019459
-0.4712022 1.4466106 1.119076 -0.21494065 -0.14728838 0.14479749 -0.0397147 0.66254777
-0.56069523 0.14444548 -0.23528866 -0.091658525 -0.6016384 0.15495701 -0.06931389 0.061549753
0.14998758 0.3768093 -1.0433041 0.6649097 0.5689105 0.1773875 0.5420746 1.1562859
-0.103619404 0.3974388 0.32354665 -0.13586438 0.75496846 -0.14267008 -1.5525167 -0.9241746
0.30875075 1.0014024 -0.14787032 -1.2277852 -0.59539294 -0.58515865 1.1876467 0.43927097
-0.1311649 -0.012442639 0.00088254607 -0.9405747 -0.767086 -0.22587715 0.5976144 -0.85254383
-1.2796726 -0.6441245 -1.0713085 -0.5783395 1.3867105 0.7288246 0.42867547 0.9090613
0.003980982 -0.2366804 0.026910273 0.051561393 0.11031529 0.1608914 0.25972903 0.5046161
-0.56132025 -0.29781988 0.7128729 -0.61036175 -0.70390767 1.0361706 -1.1387293 0.44296753
-0.6287743 0.08545683 0.5559956 0.06336189 -0.24265558 0.2792202 0.06118034 -0.4033891
0.28454888 -0.27795276 -0.25393084 -0.534086 0.16967319 -0.37954462 0.017816806 0.99573445
0.29083675 0.47965682 -0.30934405 0.3367341 0.0018431646 0.4255224 -0.4310306 -0.25645357
-0.020375945 -0.019293193 -0.01776932 0.015605512 0.3974945 -0.3019989 0.046083618 0.4833279
-0.45460665 0.32879442 0.47603354 -0.24887545 0.10030561 -0.0012814456 -0.38675877 -0.0312989
1.0099716 0.208222 0.83756214 -2.7850063 -0.10940027 -0.46060795 0.34964988 0.25853157
-0.2476519 -0.4388937 -0.6296644 -1.3230716 0.1317493 0.5803316 0.20090717 -0.10275615
0.25188133 0.4524246 -0.013371134 -0.43809396 0.11554033 -0.16848849 0.4948866 -0.31664562
-0.25849777 -1.0826365 0.6608627 0.22029197 0.0063337134 0.33379987 0.18662313 -0.36558405
1.6005201 -0.12027301 -0.12504311 -0.59258425 -0.26935905 -0.5664863 -0.68372273 0.15072459
-0.10097968 0.43397912 -0.25319815 -1.3316233 -1.2819884 0.49427143 0.53989816 -0.13620496
0.750695 -0.04108751 -0.14008155 0.39161292 0.87185556 -0.60619044 -0.17174838 0.17013237
-0.016964512 -1.1455963 0.9817818 0.57487553 1.374206 -0.67798066 0.20372066 -0.411763
0.37078986 1.1163331 0.49051964 0.09043893 0.085641615 0.7338571 0.18229021 0.045673855
00000000: 8a4e 80be 046d dabe f904 fbbe d08f 8abe
00000010: fdc1 96bf db78 60bf 5c16 803f 557d d63e
00000020: 1a13 6c3e 9ed8 443f 683c 693d 5189 6cbe
00000030: 7167 34be c852 b9be c44e f53d 609c 84bf
00000040: 157c e73d ec2f ee3d 9335 7c3e e02f 2ebe
00000050: 0a9a 3f3e e16f 413f 3ebd 893e bdf2 e9bd
00000060: 32d3 4e3f 8c59 e23e 64c9 43be 12b7 243f
00000070: be18 0bbf a24c cebe 3156 3cbb c1c3 313e
00000080: da02 163e 2478 973f 6543 1e3f 52bb 8bbd
00000090: 5005 a33e b949 433d 6fb5 d6bd cb1f 343d
000000a0: 2195 c4bf 840d 3e3f efb0 ea3d 9c8a ddbe
000000b0: e277 6b3f 77d3 17be 5d2c cfbe 09ad d9be
000000c0: 56b6 99bc 7a99 833c efe9 a93e 3282 713f
000000d0: bd01 41be c216 27be 2bc7 c1bd 3d5a 773e
000000e0: ac8d 4c3e 1db5 8dbf d086 65bf 20dc 0d3f
000000f0: a1e7 4fbf 3bba a23e ba8e 93bf bd57 0abf
00000100: 0c9b d63c 0fc3 5c3f 1dbc 9dbe 4c40 613d
00000110: 5e79 63be 28cc 84bd 4a09 51bf c33f 80bf
00000120: 6a41 f1be 892a b93f e23d 8f3f 6719 5cbe
00000130: c4d2 16be cb45 143e e2ab 22bd bb9c 293f
00000140: b989 0fbf 84e9 133e 83ef 70be 77b7 bbbd
00000150: f904 1abf 0dad 1e3e 71f4 8dbd 981b 7c3d
00000160: 5896 193e 26ed c03e fd8a 85bf 8637 2a3f
00000170: 1ea4 113f 12a5 353e 67c5 0a3f 2d01 943f
00000180: 6936 d4bd 197d cb3e e8a7 a53e 0820 0bbe
00000190: 9d45 413f 1b18 12be deb8 c6bf b596 6cbf
000001a0: 9414 9e3e f42d 803f 516b 17be 1128 9dbf
000001b0: ac6b 18bf f5cc 15bf cf04 983f 20e8 e03e
000001c0: 1750 06be 36dc 4bbc aa5a 673a 81c9 70bf
000001d0: c05f 44bf 574c 67be 42fd 183f 5040 5abf
000001e0: 50cc a3bf 58e5 24bf a320 89bf 0f0e 14bf
000001f0: bb7f b13f 4094 3a3f 5a7b db3e 3eb8 683f
00000200: e672 823b 595c 72be ef72 dc3c 0a32 533d
00000210: fcec e13d b7c0 243e 34fb 843e 852e 013f
00000220: afb2 0fbf d97b 98be d77e 363f ab40 1cbf
00000230: 4b33 34bf 3da1 843f e2c1 91bf a4cc e23e
00000240: 5af7 20bf fe03 af3d ba55 0e3f e1c3 813d
00000250: b47a 78be f3f5 8e3e 3c98 7a3d 0489 cebe
00000260: 64b0 913e d34f 8ebe 3903 82be dcb9 08bf
00000270: cfbe 2d3e ac53 c2be 8df4 913c 74e8 7e3f
00000280: 8ee8 943e 9495 f53e 5862 9ebe 6968 ac3e
00000290: 5796 f13a 12de d93e 0bb0 dcbe e24d 83be
000002a0: 74eb a6bc c20c 9ebc f790 91bc 43ae 7f3c
000002b0: 6684 cb3e 9a9f 9abe 2dc2 3c3d c176 f73e
000002c0: 34c2 e8be be57 a83e abba f33e 35d9 7ebe
000002d0: 076d cd3d 2ef6 a7ba 3f05 c6be 4633 00bd
000002e0: c046 813f 2638 553e 796a 563f 8b3d 32c0
000002f0: 400d e0bd ced4 ebbe 4f05 b33e 405e 843e
00000300: 7698 7dbe adb6 e0be b031 21bf 695a a9bf
00000310: 4ae9 063e 9d90 143f 9cba 4d3e d171 d2bd
00000320: 97f6 803e 32a4 e73e 9a12 5bbc da4d e0be
00000330: 69a0 ec3d 3f88 2cbe c761 fd3e 601f a2be
00000340: d259 84be d593 8abf 4c2e 293f 3894 613e
00000350: 0a8b cf3b d1e7 aa3e 221a 3f3e d52d bbbe
00000360: d8dd cc3f b251 f6bd 4d0b 00be 9ab3 17bf
00000370: 6ee9 89be 3f05 11bf 7408 2fbf 8c57 1a3e
00000380: 6fce cebd 8332 de3e 30a3 81be a272 aabf
00000390: 3218 a4bf 2511 fd3e c436 0a3f 5079 0bbe
000003a0: 8c2d 403f 604b 28bd 8a71 0fbe 7d81 c83e
000003b0: ed31 5f3f 4c2f 1bbf cfde 2fbe 2e37 2e3e
000003c0: 29f9 8abc e6a2 92bf 0d56 7b3f 0b2b 133f
000003d0: fbe5 af3f 2490 2dbf 269c 503e 9ad2 d2be
000003e0: 2bd8 bd3e 01e4 8e3f 6425 fb3e 0c38 b93d
000003f0: df64 af3d 0fde 3b3f 49aa 3a3e 8214 3b3d

onnx::MatMul_39 f4 [128, 128]
-0.45425516 -0.8471487 -0.65925187 0.2503556 -0.07466905 0.5123885 -0.10009088 -0.053716984
-0.06015847 -0.1603065 0.14283463 0.7159232 -0.32495758 0.04077177 -0.4475967 -0.28355852
0.35256487 0.24911146 -0.3083074 0.1770766 -0.21533053 -0.43001214 0.024424465 -0.037000254
-0.4312171 0.2968235 -0.25380227 0.48921454 0.16000044 0.20445208 0.40292057 -0.3146353
-0.20341253 -0.20137717 -0.08233005 0.17182349 0.33008927 -0.013876659 -0.14022726 -0.23456794
-0.4731111 -0.42662814 -0.009930913 -0.4576158 0.13327208 -0.7668126 -0.21436442 0.1487811
0.17681508 -0.6731513 -0.067696325 -0.06524372 0.21723166 -0.3495188 -0.7440988 -0.07351301
0.38284272 0.18304087 -0.60583204 0.21323241 0.061743032 0.1818972 -0.44056487 -0.053803902
-0.2761421 0.7593662 -0.3208186 0.06352189 0.24617186 -0.9989913 -0.5218919 0.033446267
0.7447689 -0.79779816 0.62091434 -0.044403244 0.08816345 0.3412824 0.46106467 0.34119734
-0.32925045 0.27365628 0.9179796 0.380374 -0.3598311 -0.52330667 -0.11114949 -0.4626213
0.08338692 -0.630406 -0.06751864 -0.39195508 0.5319761 0.08392719 -0.18629727 -0.008049218
0.25539947 -0.059617694 0.62996876 0.10985592 -0.656403 -0.009883958 -0.04350699 -0.66211206
0.034600046 -0.06511864 0.29881385 -0.7832182 0.4774234 0.41929427 0.034525927 -0.3189986
-0.28653347 0.07929015 1.2036932 -0.37129465 0.1041839 -0.018207066 -0.4179904 -0.3514762
0.32553264 0.77869076 -0.48699307 0.043783084 -0.25882274 0.40272635 -0.30240333 -0.53010136
-0.10895674 -0.7269814 0.2071065 0.045564454 -0.2868051 -0.30825397 -0.39622524 -0.16788492
-0.38144514 -0.0049002734 -0.7608285 0.027154129 0.061441913 0.02446921 -0.1946408 0.21703096
0.8213182 -0.49600405 0.21288672 0.08376982 0.91817594 -0.9133704 -0.13880862 -0.15614086
-0.22172837 0.07353439 -0.46889353 -0.36626706 0.09185008 -0.26070946 0.14311433 -0.03464579
0.008448207 -0.5625265 0.10818365 -0.36468014 -0.31236848 0.0075371983 -0.07374959 0.18179707
0.24990256 -0.3617619 -0.08703029 -0.078376055 0.62583846 -0.5734954 -0.027257333 0.12100405
0.003045409 0.09484804 -0.047756862 -0.48161927 -0.014067572 -0.16099632 0.07069772 -0.3480291
0.12609169 0.055854805 0.06365257 0.5822422 0.15554576 -0.3589474 -0.46113375 0.5442718
-0.039615232 0.10643762 0.25340766 -0.1971018 -0.9994577 -0.97376835 0.44787312 -0.22121158
-0.4152341 -0.027179768 -0.8780191 0.22151476 -0.01670575 1.0103922 0.07391601 -0.1479978
0.047706466 0.059165858 -0.19827111 -0.13787144 0.05103614 -0.10832532 -0.04930061 -0.2456823
-0.318228 -0.47961086 -0.03479769 -0.3231016 0.08771746 -0.25817215 0.10881786 -0.26856887
0.40363798 0.007834549 -0.20425817 -0.59550214 -0.5308124 -0.28213155 -1.0067196 -0.55386466
-0.090857625 -0.1809705 0.04377351 0.3435371 -0.27045462 -0.06530391 -0.41135627 -0.10072257
0.14162666 -0.09691477 0.19089939 -0.6095526 0.25616235 -0.7072855 0.25669286 -0.6283313
-0.219361 -0.16887978 -0.15290004 -0.87835354 0.33049688 -0.22120544 -0.27270436 -0.41948554
00000000: 2294 e8be bdde 58bf bbc4 28bf 9c2e 803e
00000010: 16ec 98bd e52b 033f 73fc ccbd 5706 5cbd
00000020: ba68 76bd 6327 24be 3e43 123e be46 373f
00000030: d760 a6be 4d00 273d 652b e5be 952e 91be
00000040: 6283 b43e 1317 7f3e 78da 9dbe 9153 353e
00000050: 9b7f 5cbe 8d2a dcbe d115 c83c 948d 17bd
00000060: 7dc8 dcbe 40f9 973e 5ff2 81be 547a fa3e
00000070: 28d7 233e e35b 513e 9b4b ce3e e117 a1be
00000080: 604b 50be d135 4ebe a89c a8bd 7ff2 2f3e
00000090: 7601 a93e ed5a 63bc bc97 0fbe 9432 70be
000000a0: 9e3b f2be 016f dabe 45b5 22bc 9e4c eabe
000000b0: 7a78 083e d54d 44bf 5982 5bbe 135a 183e
000000c0: 030f 353e a553 2cbf 5fa4 8abd 809e 85bd
000000d0: fa71 5e3e 21f4 b2be 427d 3ebf fd8d 96bd
000000e0: f603 c43e 116f 3b3e cf17 1bbf 9959 5a3e
000000f0: 43e6 7c3d 4243 3a3e b891 e1be 7b61 5cbd
00000100: 7f62 8dbe d365 423f 5642 a4be c417 823d
00000110: 7a14 7c3e e5bd 7fbf b59a 05bf f4fe 083d
00000120: 2da9 3e3f 803c 4cbf 3ef4 1e3f 2de0 35bd
00000130: 0a8f b43d 91bc ae3e ab10 ec3e 6bb1 ae3e
00000140: 8493 a8be ad1c 8c3e b600 6b3f 62c0 c23e
00000150: c83b b8be 6df7 05bf 58a2 e3bd b3dc ecbe
00000160: c3c6 aa3d 4a62 21bf 3647 8abd 56ae c8be
00000170: 962f 083f 05e2 ab3d b6c4 3ebe dee0 03bc
00000180: b8c3 823e af31 74bd a245 213f 24fc e03d
00000190: 070a 28bf 53f0 21bc 6334 32bd 2d80 29bf
000001a0: c7b8 0d3d ec5c 85bd 21fe 983e fd80 48bf
000001b0: d770 f43e bdad d63e 0f6b 0d3d c953 a3be
000001c0: 84b4 92be e062 a23d 9e12 9a3f 551a bebe
000001d0: 5e5e d53d fc26 95bc d602 d6be b0f4 b3be
000001e0: 37ac a63e 4758 473f 2857 f9be e455 333d
000001f0: 6a84 84be 2632 ce3e 9cd4 9abe b9b4 07bf
00000200: b624 dfbd 741b 3abf ba13 543e cba1 3a3d
00000210: 1ed8 92be 77d3 9dbe 09de cabe 06ea 2bbe
00000220: c74c c3be 7992 a0bb a8c5 42bf 5672 de3c
00000230: 84aa 7b3d a773 c83c eb4f 47be 5d3d 5e3e
00000240: e941 523f 3ef4 fdbe fafe 593e 838f ab3d
00000250: 940d 6b3f a4d2 69bf d923 0ebe 64e3 1fbe
00000260: c30c 63be 3399 963d d012 f0be 5b87 bbbe
00000270: e51b bc3d b67b 85be 908c 123e bee8 0dbd
00000280: 596a 0a3c bd01 10bf 648f dd3d 5bb7 babe
00000290: c3ee 9fbe 9afa f63b 060a 97bd 0329 3a3e
000002a0: 75e6 7f3e db38 b9be f03c b2bd a083 a0bd
000002b0: f336 203f 98d0 12bf c54a dfbc f9d0 f73d
000002c0: 7c95 473b b03f c23d b39c 43bd cd96 f6be
000002d0: ac7b 66bc 38dc 24be f7c9 903d df30 b2be
000002e0: 2e1e 013e 02c8 643d 475c 823d d30d 153f
000002f0: 6347 1f3e f4c7 b7be b919 ecbe 6655 0b3f
00000300: 9543 22bd f8fb d93d a6be 813e 0ed5 49be
00000310: 76dc 7fbf e248 79bf a04f e53e 4a85 62be
00000320: 9099 d4be 1ba8 debc dcc5 60bf c4d4 623e
00000330: 7fda 88bc 8854 813f 4761 973d bc8c 17be
00000340: db67 433d e657 723d 9507 4bbe 2c2e 0dbe
00000350: 460b 513d aad9 ddbd 70ef 49bd 2494 7bbe
00000360: c8ee a2be 8e8f f5be 0688 0ebd 936d a5be
00000370: 36a5 b33d 242f 84be e6db de3d dc81 89be
00000380: a3a9 ce3e 7b5c 003c 0e29 51be d472 18bf
00000390: 52e3 07bf 8c73 90be 30dc 80bf 13ca 0dbf
000003a0: 9013 babd 5550 39be da4b 333d 18e4 af3e
000003b0: 0779 8abe 0ebe 85bd 4a9d d2be a347 cebd
000003c0: 9406 113e 407b c6bd 217b 433e a40b 1cbf
000003d0: b627 833e aa10 35bf 3f6d 833e 52da 20bf
000003e0: 2ca0 60be d2ee 2cbe d491 1cbe c7db 60bf
000003f0: e336 a93e ae83 62be e89f 8bbe cfc6 d6be

onnx::MatMul_40 f4 [128, 18]
0.19511011 0.27971566 0.36487874 -1.1297648 0.7696912 -0.10481967 0.9862748 0.50838095
-0.5345465 0.9152221 0.6124622 -1.1224911 0.10733538 -0.007456208 0.96939 0.7353157
-0.36388326 1.2989988 -0.04796507 0.21676782 0.1485282 -0.019905647 -1.2690309 0.17639624
1.1227738 1.2711898 0.29020292 -0.2874465 0.93656147 -0.4718348 -1.3796694 0.32718942
1.4048015 1.1105537 0.61654556 -1.6284153 0.8340933 -0.2551383 0.98994815 0.9047258
-1.0716054 0.66278076 -0.29429328 -0.8670126 0.06736552 -0.21889901 0.18215555 0.388459
0.05181565 -0.17142907 0.6668173 -0.8733923 0.012845578 0.1944657 -0.13901684 -0.2477215
-0.10543932 0.9995078 -0.21287285 -0.6524194 0.8874674 0.023853764 0.03868182 -0.6889653
0.64585114 0.7535874 -0.23381265 -0.1873959 0.040105116 -0.12751146 0.81911266 0.7227613
-0.28250572 -0.3053964 0.2542498 0.0043698954 -0.08164741 0.25753826 0.32835597 -0.066207655
0.22467083 0.016200539 0.27998313 -0.21181323 0.09762887 0.04603804 0.46504605 -0.37574607
-0.094243206 -0.2762798 -0.092129506 -0.072084986 -0.013546182 -0.22884879 1.0761191 -0.080432944
-0.06554755 0.81838673 -0.3001902 1.0264452 0.05138362 -0.00042608278 0.8688893 -0.08448944
0.24320824 1.1957959 -0.16100487 0.9435562 0.24633792 0.3148509 -0.508545 -0.3326406
0.8109914 0.38544396 0.11206193 0.6828648 -0.3292425 0.6906705 0.0027440225 -0.30484402
1.0244896 0.29012218 -0.112480424 0.6918952 -0.039523397 0.75398904 -0.53251374 -0.048282042
-0.072044745 0.045595713 -0.46484643 0.06452114 0.46690664 -0.33718652 1.1575286 0.099291176
-0.084640436 0.23611842 0.51677376 0.15067503 0.22732474 -0.2622508 1.1442137 1.3264873
0.49751845 0.5371324 -0.44098094 0.99055415 -0.49334392 0.5333621 0.09926108 -0.5844538
0.8486183 -0.67061216 0.067515366 0.82230914 -0.8580719 0.56806993 0.19753093 -0.50863355
0.9224732 0.24480687 0.4657561 0.48256618 0.35118735 1.0559851 -0.36803105 0.49258786
0.91497654 -0.45981434 1.0305517 -0.3745993 0.4267793 1.0500661 -0.29651296 0.49159104
1.0061471 -0.47798878 1.0015655 -0.29863715 0.263768 0.42471787 0.13755621 0.5486835
0.0096487645 1.1885087 -0.5096156 -0.38025472 0.80055195 -0.033826772 0.82046187 0.97268665
0.31979436 0.33753222 -0.19674012 -0.34740323 1.5383928 0.5887874 0.39930865 0.33432427
-0.6464932 0.41645387 0.40730348 0.39643306 -1.2356439 -0.37816682 0.42017275 0.3652428
-0.67539257 0.32746795 0.39865923 0.35350326 -2.9089642 0.95561004 0.31699237 0.42338946
-0.2403934 -0.20438525 0.27901745 -1.8000973 1.3200061 0.06333415 -0.7358768 0.96510893
-1.721424 1.5138272 0.38368282 -1.3214332 0.9202223 -0.2279412 -0.6544775 0.90664035
-0.8024103 1.0667329 0.373495 0.42125285 -0.063371085 0.91598433 0.2194104 0.6814063
0.38438302 -0.17019145 1.3385055 0.026419148 -0.3467572 0.31227902 -0.11963875 0.82822555
-0.6124293 -1.131103 0.28931978 -0.09641654 0.5196665 0.45432237 0.42361018 0.003721527
00000000: f2ca 473e e436 8f3e 63d1 ba3e 229c 90bf
00000010: 7c0a 453f b2ab d6bd 817c 7c3f 4125 023f
00000020: 0ad8 08bf ff4b 6a3f 53ca 1c3f caad 8fbf
00000030: a7d2 db3d 3553 f4bb f129 783f a63d 3c3f
00000040: e84e babe 9845 a63f 0577 44bd 62f8 5d3e
00000050: c717 183e 2b11 a3bc 9b6f a2bf 37a1 343e
00000060: 0db7 8f3f 59b6 a23f 7a95 943e 302c 93be
00000070: 7ec2 6f3f 5594 f1be 0299 b0bf 5f85 a73e
00000080: 89d0 b33f a026 8e3f eed5 1d3f ea6f d0bf
00000090: 2387 553f 7da1 82be 3e6d 7d3f 1c9c 673f
000000a0: 5e2a 89bf 00ac 293f 9cad 96be 8af4 5dbf
000000b0: eff6 893d 1027 60be fc86 3a3e 19e4 c63e
000000c0: a63c 543d 1a8b 2fbe 8ab4 2a3f a396 5fbf
000000d0: 4276 523c 0422 473e 6e5a 0ebe b4aa 7dbe
000000e0: 92f0 d7bd bedf 7f3f 57fb 59be f504 27bf
000000f0: 1031 633f f868 c33c d470 1e3d 0860 30bf
00000100: 8056 253f 1beb 403f 956c 6fbe b6e4 3fbe
00000110: 4345 243d 5d92 02be 5eb1 513f e206 393f
00000120: 97a4 90be eb5c 9cbe 082d 823e 5731 8f3b
00000130: c236 a7bd 0edc 833e 461e a83e e197 87bd
00000140: 1c10 663e feb6 843c f359 8f3e 91e5 58be
00000150: a5f1 c73d 6292 3c3d 841a ee3e ca61 c0be
00000160: 9502 c1bd 8c74 8dbe 65ae bcbd 4ba1 93bd
00000170: cef0 5dbc 5657 6abe 45be 893f 07ba a4bd
00000180: cb3d 86bd cb81 513f 88b2 99be 8e62 833f
00000190: a177 523d dd63 dfb9 876f 5e3f cd08 adbd
000001a0: 950b 793e d70f 993f 76de 24be e68c 713f
000001b0: 0240 7c3e 2334 a13e 0130 02bf de4f aabe
000001c0: 229d 4f3f e958 c53e ba80 e53d 3ad0 2e3f
000001d0: 7992 a8be c8cf 303f 0fd5 333b 8414 9cbe
000001e0: 7a22 833f e58a 943e 235c e6bd 0b20 313f
000001f0: 49e3 21bd 6d05 413f d252 08bf 64c3 45bd
00000200: 328c 93bd 92c2 3a3d 5a00 eebe a923 843d
00000210: 630e ef3e b6a3 acbe e629 943f 2c59 cb3d
00000220: f757 adbd 07c9 713e 494b 043f 8e4a 1a3e
00000230: d1c7 683e bd45 86be 9875 923f 56ca a93f
00000240: bdba fe3e 8281 093f 41c8 e1be f594 7d3f
00000250: 9397 fcbe 6b8a 083f 6549 cb3d c49e 15bf
00000260: 0d3f 593f 3dad 2bbf 7f45 8a3d da82 523f
00000270: 9aaa 5bbf 086d 113f 8c45 4a3e cf35 02bf
00000280: 3427 6c3f a7ae 7a3e 9577 ee3e ea12 f73e
00000290: d4ce b33e 852a 873f 916e bcbe 7a34 fc3e
000002a0: e73b 6a3f c96c ebbe 1ee9 833f 7bcb bfbe
000002b0: d182 da3e 9168 863f 8cd0 97be d2b1 fb3e
000002c0: 6ec9 803f f2ba f4be 4c33 803f f8e6 98be
000002d0: 990c 873e 9f74 d93e 89db 0c3e 8676 0c3f
000002e0: da15 1e3c 0e21 983f 2b76 02bf bfb0 c2be
000002f0: f9f0 4c3f f18d 0abd ca09 523f fe01 793f
00000300: 16bc a33e 06d1 ac3e 3e76 49be d6de b1be
00000310: 0eea c43f c5ba 163f 2f72 cc3e 8d2c ab3e
00000320: 9480 25bf 7139 d53e 158a d03e 46f9 ca3e
00000330: 9429 9ebf 159f c1be e220 d73e 1b01 bb3e
00000340: 87e6 2cbf e1a9 a73e 101d cc3e 61fe b43e
00000350: 782c 3ac0 dca2 743f d34c a23e 81c6 d83e
00000360: b029 76be 5e4a 51be 60db 8e3e 9769 e6bf
00000370: f6f5 a83f 56b5 813d 6c62 3cbf 6111 773f
00000380: 9f57 dcbf 17c5 c13f 1372 c43e b924 a9bf
00000390: b093 6b3f 6b69 69be d68b 27bf 9519 683f
000003a0: c36a 4dbf b48a 883f bd3a bf3e 74ae d73e
000003b0: b3c8 81bd f37d 6a3f 1fad 603e a570 2e3f
000003c0: dacd c43e ab46 2ebe 2654 ab3f f86c d83c
000003d0: 298a b1be 09e3 9f3e 2905 f5bd 9706 543f
000003e0: 2bc8 1cbf fcc7 90bf b921 943e 0976 c5bd
000003f0: dd08 053f f19c e83e 6fe3 d83e dde4 733b
